…
    "opt = optimizers.SGD(lr=learning_rate, decay=decay, momentum=momentum, nesterov=True)\n",
    "model.compile(optimizer=opt, loss='categorical_crossentropy', metrics=['categorical_accuracy'])"
   ]
  },
  {
   "cell_type": "code",
   "execution_count": 112,
   "metadata": {},
   "outputs": [
    {
     "name": "stdout",
     "output_type": "stream",
     "text": [
      "Model: \"Audio_CNN_2D\"\n",
      "_________________________________________________________________\n",
      "Layer (type)                 Output Shape              Param #   \n",
      "=================================================================\n",
      "conv2d_32 (Conv2D)           (None, 128, 259, 64)      640       \n",
      "_________________________________________________________________\n",
      "batch_normalization_32 (Batc (None, 128, 259, 64)      256       \n",
      "_________________________________________________________________\n",
      "activation_32 (Activation)   (None, 128, 259, 64)      0         \n",
      "_________________________________________________________________\n",
      "max_pooling2d_32 (MaxPooling (None, 64, 129, 64)       0         \n",
      "_________________________________________________________________\n",
      "dropout_10 (Dropout)         (None, 64, 129, 64)       0         \n",
      "_________________________________________________________________\n",
      "conv2d_33 (Conv2D)           (None, 64, 129, 64)       36928     \n",
      "_________________________________________________________________\n",
      "batch_normalization_33 (Batc (None, 64, 129, 64)       256       \n",
      "_________________________________________________________________\n",
      "activation_33 (Activation)   (None, 64, 129, 64)       0         \n",
      "_________________________________________________________________\n",
      "max_pooling2d_33 (MaxPooling (None, 16, 32, 64)        0         \n",
      "_________________________________________________________________\n",
      "dropout_11 (Dropout)         (None, 16, 32, 64)        0         \n",
      "_________________________________________________________________\n",
      "flatten_11 (Flatten)         (None, 32768)             0         \n",
      "_________________________________________________________________\n",
      "dense_14 (Dense)             (None, 12)                393228    \n",
      "=================================================================\n",
      "Total params: 431,308\n",
      "Trainable params: 431,052\n",
      "Non-trainable params: 256\n",
      "_________________________________________________________________\n"
     ]
    }
   ],
   "source": [
    "model.summary()"
   ]
  },
  {
   "cell_type": "code",
   "execution_count": 113,
   "metadata": {
…
