…
P1vMdehhlpby7Z4TTvKABPlWsoR7F8r3qjrBCK7FEnLcEMwWa1EeIgG_iPDYhiefK0wiMUwOxxjwn4qXMWt2Ky1d25y5JhbmNZ56Z0jWavkzKXPKEYXYd8_qodxghAy3s-Af41WcfY=s64","userId":"08193216617845146291"}},"colab":{"base_uri":"https://localhost:8080/","height":1000}},"source":["model.summary()"],"execution_count":8,"outputs":[{"output_type":"stream","text":["Model: \"Audio_CNN_2D\"\n","_________________________________________________________________\n","Layer (type)                 Output Shape              Param #   \n","=================================================================\n","conv2d_9 (Conv2D)            (None, 128, 259, 128)     1280      \n","_________________________________________________________________\n","batch_normalization_9 (Batch (None, 128, 259, 128)     512       \n","_________________________________________________________________\n","activation_9 (Activation)    (None, 128, 259, 128)     0         \n","_________________________________________________________________\n","max_pooling2d_9 (MaxPooling2 (None, 64, 129, 128)      0         \n","_________________________________________________________________\n","dropout_9 (Dropout)          (None, 64, 129, 128)      0         \n","_________________________________________________________________\n","conv2d_10 (Conv2D)           (None, 64, 129, 128)      147584    \n","_________________________________________________________________\n","batch_normalization_10 (Batc (None, 64, 129, 128)      512       \n","_________________________________________________________________\n","activation_10 (Activation)   (None, 64, 129, 128)      0         \n","_________________________________________________________________\n","max_pooling2d_10 (MaxPooling (None, 16, 32, 128)       0         \n","_________________________________________________________________\n","dropout_10 (Dropout)         (None, 16, 32, 128)       0         \n","_________________________________________________________________\n","conv2d_11 (Conv2D)           (None, 16, 32, 64)        73792     \n","_________________________________________________________________\n","batch_normalization_11 (Batc (None, 16, 32, 64)        256       \n","_________________________________________________________________\n","activation_11 (Activation)   (None, 16, 32, 64)        0         \n","_________________________________________________________________\n","max_pooling2d_11 (MaxPooling (None, 4, 8, 64)          0         \n","_________________________________________________________________\n","dropout_11 (Dropout)         (None, 4, 8, 64)          0         \n","_________________________________________________________________\n","conv2d_12 (Conv2D)           (None, 4, 8, 64)          36928     \n","_________________________________________________________________\n","batch_normalization_12 (Batc (None, 4, 8, 64)          256       \n","_________________________________________________________________\n","activation_12 (Activation)   (None, 4, 8, 64)          0         \n","_________________________________________________________________\n","max_pooling2d_12 (MaxPooling (None, 1, 2, 64)          0         \n","_________________________________________________________________\n","dropout_12 (Dropout)         (None, 1, 2, 64)          0         \n","_________________________________________________________________\n","reshape_3 (Reshape)          (None, 128, 1)            0         \n","_________________________________________________________________\n","lstm_2 (LSTM)                (None, 256)               264192    \n","_________________________________________________________________\n","dense_1 (Dense)              (None, 12)                3084      \n","=================================================================\n","Total params: 528,396\n","Trainable params: 527,628\n","Non-trainable params: 768\n","_________________________________________________________________\n"],"name":"stdout"}]},{"cell_type":"code","metadata":{"scrolled":true,"id":"jAfzd2kweh2t","colab_type":"code","outputId":"88ce72f6-4daf-4c8c-f7b3-4bf23c61083a","execu
…
